models/dqn_checkpoint.pth (torch, 288645 bytes, 24 tensors)

fc1.weight f4 [128, 4]
0.00871474 -0.0048422716 1.3330576 0.36093968 -0.009420437 0.56406546 3.0647864 0.85781723
-0.08036105 0.1553891 1.8944081 0.6405519 0.4692679 -1.0664796 3.655482 1.4833956
0.2694342 -0.60533863 1.4772927 3.0379193 -0.06002399 0.02616578 -0.623335 -2.3021653
-0.00773209 0.43462542 2.005342 0.69173175 0.013090365 -0.008103084 3.2549453 1.9033443
0.20348093 -0.5789788 1.4635408 1.9901692 0.0031644609 -0.010536676 0.5623083 0.9002173
-0.43660778 -0.42706043 0.3079722 0.49595064 0.12231943 -12.439728 7.0929337 2.356502
-0.15286088 0.31599483 1.8132058 -0.53300333 0.0024272653 0.007225675 -0.24286309 -0.8545664
0.25462115 0.7348239 1.52766 1.2757198 0.46602196 -0.0021621122 7.262993 -0.779329
-0.013658802 0.3563248 2.1022837 0.6018245 0.46869776 -0.94863844 4.0752735 5.956638
-0.122502506 -0.14957815 0.28305417 0.0810079 0.285254 1.711126 0.39666417 1.3019688
-0.10844952 -0.27705276 -0.26511246 -0.43720043 0.3172188 1.8301644 0.2202132 1.2127843
-0.13293652 0.33209822 -0.0013833309 1.9534545 -0.008291599 0.7099592 2.764124 1.0362848
0.0022721137 0.008197202 2.3516014 1.4940513 0.0049716304 -0.004102962 -1.4475229 0.6546567
-0.2547257 -0.001290314 0.12660508 -0.08214239 -0.00933854 0.22809055 3.1235647 0.43962514
-0.0024370681 0.02893688 1.9504573 0.5245842 0.42238882 -0.85074025 3.0919948 4.851715
-0.14334227 0.27159297 2.198787 -0.03548601 0.3185887 0.011270982 6.053636 1.0543715
0.29404286 0.57090646 1.1478673 1.4256827 -0.024147093 -0.33855504 -0.2809502 0.39647686
-0.030865788 -0.24113792 -0.3508727 -0.062020004 -0.110497825 0.090696074 1.302704 -0.8712321
-0.2630841 -0.10948312 -0.08675021 -0.358437 0.4936001 -0.93884283 6.2360873 1.7210286
-0.00811945 0.4488798 3.0655723 0.8953251 0.004664646 -0.008149754 1.6457479 0.42319816
0.0011057609 -0.0072859167 1.9343591 1.1328707 -0.63133043 -0.00075746555 -0.4017601 -0.6025786
0.000924197 0.33209562 2.9044595 0.6580208 -0.7890043 -0.0004481796 -0.49795875 -0.03699242
0.6441934 -0.6691229 6.924611 5.4549537 -0.02390207 0.0031760386 2.9884603 0.3159649
-0.26439232 -0.03644079 -0.32091576 -0.11886358 -0.09584367 -0.34752238 -0.42861676 0.104780614
0.33550844 1.4542572 0.35978845 1.3479933 -0.0075001228 0.26445258 2.6363924 0.77171844
0.8012668 -1.3370199 2.4616458 -0.35458308 0.4606343 -2.16987 0.6316994 -3.5149481
-0.08299821 0.11806051 1.6266085 0.93842524 0.3606016 -0.8341923 3.532192 1.8899673
-0.02290112 -0.0036884402 1.6077453 0.22709759 0.0016388366 -0.0065813665 2.2728348 -0.025470382
0.45574754 1.176542 0.42960697 1.6331965 -0.47115618 -0.1449458 -0.21784973 0.22030663
-0.22272277 -10.287414 5.458196 0.007994033 -0.16575947 0.26973167 1.1407475 -0.6373698
0.5207839 1.2580734 0.6553338 1.5651792 -0.32560772 -0.2305668 0.35456884 0.23201221
0.48233905 -0.6888027 6.2491546 3.6234472 0.0009770849 -0.009252764 2.5552356 1.9524324
00000000: 45c8 0e3c ebab 9ebb a2a1 aa3f 16cd b83e
00000010: 2d58 1abc 9866 103f 7625 4440 e999 5b3f
00000020: 5694 a4bd 521e 1f3e f77b f23f 36fb 233f
00000030: e243 f03e 6782 88bf 6bf3 6940 e8df bd3f
00000040: 48f3 893e 79f7 1abf ed17 bd3f 456d 4240
00000050: b7db 75bd 9e59 d63c e292 1fbf ad56 13c0
00000060: 795d fdbb 3987 de3e 8657 0040 5515 313f
00000070: f878 563c ccc2 04bc 0651 5040 c9a0 f33f
00000080: 4e5d 503e f437 14bf 4e55 bb3f ddbd fe3f
00000090: d862 4f3b 06a2 2cbc 70f3 0f3f a474 663f
000000a0: 0e8b dfbe aaa7 dabe 88ae 9d3e 3eed fd3e
000000b0: 9c82 fa3d 2009 47c1 50f9 e240 eed0 1640
000000c0: 9087 1cbe 13ca a13e 2117 e83f e872 08bf
000000d0: c112 1f3b 5bc5 ec3b 1ab1 78be ddc4 5abf
000000e0: b45d 823e 6b1d 3c3f 5d8a c33f c94a a33f
000000f0: 6e9a ee3e 39b2 0dbb 706a e840 1b82 47bf
00000100: 2bc9 5fbc 3470 b63e d18b 0640 2c11 1a3f
00000110: 27f9 ef3e f8d9 72bf a468 8240 c79c be40
00000120: 98e2 fabd 042b 19be 7aec 903e 78e7 a53d
00000130: d00c 923e 2d06 db3f 9117 cb3e eaa6 a63f
00000140: c81a debd dcd9 8dbe d2bc 87be bcd8 dfbe
00000150: 816a a23e d442 ea3f 927f 613e 843c 9b3f
00000160: 8320 08be c708 aa3e e250 b5ba cc0a fa3f
00000170: 7dd9 07bc e3bf 353f 68e7 3040 fba4 843f
00000180: bee7 143b 8f4d 063c a380 1640 133d bf3f
00000190: 0fe9 a23b 2472 86bb 6e48 b9bf 9597 273f
000001a0: 686b 82be c11f a9ba c3a4 013e 453a a8bd
000001b0: ad00 19bc 9290 693e 7ce8 4740 8c16 e13e
000001c0: 38b7 1fbb 090d ed3c 96a8 f93f 264b 063f
000001d0: 5943 d83e 1dca 59bf 3ee3 4540 4041 9b40
000001e0: 51c8 12be 3c0e 8b3e edb8 0c40 c759 11bd
000001f0: 0f1e a33e eda9 383c 63b7 c140 a5f5 863f
00000200: c98c 963e ed26 123f 51ed 923f c57c b63f
00000210: 20d0 c5bc 1657 adbe b4d8 8fbe 04ff ca3e
00000220: 40da fcbc dcec 76be 96a5 b3be b008 7ebd
00000230: af4c e2bd ddbe b93d 01bf a63f 1109 5fbf
00000240: f6b2 86be b038 e0bd 18aa b1bd 0e85 b7be
00000250: 27b9 fc3e 0158 70bf 078e c740 aa4a dc3f
00000260: 7107 05bc 93d3 e53e 5632 4440 0734 653f
00000270: e3d9 983b 8c86 05bc dea7 d23f 6ead d83e
00000280: 2eef 903a b3be eebb 1499 f73f e801 913f
00000290: df9e 21bf a790 46ba 80b3 cdbe 9742 1abf
000002a0: d045 723a 7008 aa3e aae2 3940 0d74 283f
000002b0: 30fc 49bf a6f9 eab9 73f4 febe 5d85 17bd
000002c0: dce9 243f a34b 2bbf 6a96 dd40 fb8e ae40
000002d0: 46ce c3bc 1625 503b ef42 3f40 27c6 a13e
000002e0: 6e5e 87be f042 15bd 124f a4be c06e f3bd
000002f0: b049 c4bd 74ee b1be a873 dbbe 3897 d63d
00000300: c3c7 ab3e 1a25 ba3f 3136 b83e 0b8b ac3f
00000310: 97c3 f5bb 5466 873e a7ba 2840 578f 453f
00000320: d21f 4d3f 7823 abbf 9b8b 1d40 ea8b b5be
00000330: 42d8 eb3e 26df 0ac0 0db7 213f e9f4 60c0
00000340: f7fa a9bd b5c9 f13d b534 d03f a33c 703f
00000350: c6a0 b83e a08d 55bf 6f0f 6240 73ea f13f
00000360: 219b bbbc c2b9 71bb 99ca cd3f 458c 683e
00000370: 3bce d63a 81a8 d7bb 2076 1140 43a7 d0bc
00000380: be57 e93e ee98 963f 72f5 db3e 950c d13f
00000390: 623b f1be ac6c 14be 0014 5fbe 1098 613e
000003a0: 7011 64be 3f99 24c1 8ba9 ae40 68f9 023c
000003b0: dabc 29be 451a 8a3e 0404 923f ab2a 23bf
000003c0: 1852 053f 8d08 a13f f5c3 273f cb57 c83f
000003d0: 0eb6 a6be b419 6cbe 0c8a b53e 9c94 6d3e
000003e0: 25f5 f63e 6055 30bf 13f9 c740 8fe6 6740
000003f0: 8711 803a e898 17bc fb88 2340 4ee9 f93f

fc1.bias f4 [128]
8.983588 7.087213 8.538313 4.1809144 7.5182943 10.150187 7.9376864 8.4665985
5.486457 10.792073 -0.49197274 0.80728114 7.679416 10.903796 -4.798425 -2.906454
8.072764 7.762178 -0.3271019 -5.0146313 -0.08965415 -5.0466714 -3.7356505 7.3772454
8.296649 10.927421 -0.43496034 6.95533 7.529936 7.2596383 7.438272 -2.1075604
-4.7517557 -0.4197334 -0.29580724 8.046553 0.08641577 1.7538167 7.807088 8.684487
9.097823 -0.41377506 7.885169 -0.40924704 3.428345 8.033186 -0.49617517 -0.48558503
-4.9876337 7.3502736 -0.42278877 -0.18043795 8.396511 4.8722806 10.118005 8.212588
-5.0995607 0.08661795 -0.81578296 8.268166 -5.1576843 -0.4597817 3.100178 9.719518
-4.942248 7.8544793 7.6940713 -4.2148867 -0.1631679 8.292666 6.9831676 7.0734663
7.810568 -5.0911713 7.531551 -4.1404147 3.4666402 0.29141706 9.786776 8.992287
-1.1569366 7.3465657 7.676402 2.8657734 8.494459 9.155217 -4.9271984 0.05514252
11.955964 8.108678 -0.12946558 6.5928073 -5.0754724 8.0509405 4.476781 -0.94060045
-0.19576758 -1.8693875 0.46027327 11.816334 7.4403095 -0.15537375 -0.36202183 7.3101897
8.173831 -2.8607059 -4.925651 7.6073904 -0.114777595 -0.7470483 6.9307275 0.4317801
-4.9226913 9.96621 -0.3869238 -0.3992136 10.20955 7.034494 8.024724 -0.6907564
-4.760602 12.621456 7.7878757 8.367315 11.78927 -0.32635367 7.5314217 -0.4964245
00000000: c7bc 0f41 73ca e240 ee9c 0841 0dca 8540
00000010: de95 f040 2a67 2241 8701 fe40 3077 0741
00000020: 0e91 af40 55ac 2c41 dae3 fbbe faa9 4e3f
00000030: c7bd f540 f375 2e41 b38c 99c0 5803 3ac0
00000040: 0b2a 0141 c363 f840 e679 a7be dc77 a0c0
00000050: 989c b7bd 557e a1c0 e614 6fc0 6512 ec40
00000060: 13bf 0441 b7d6 2e41 1fb3 debe 1092 de40
00000070: 3cf5 f040 f54e e840 5306 ee40 45e2 06c0
00000080: 620e 98c0 4ce7 d6be 0c74 97be aebe 0041
00000090: c0fa b03d 117d e03f aad3 f940 a9f3 0a41
000000a0: af90 1141 53da d3be 4e53 fc40 d488 d1be
000000b0: 016a 5b40 ee87 0041 ac0a febe 9a9e f8be
000000c0: b29a 9fc0 7135 eb40 c577 d8be bac4 38be
000000d0: 1c58 0641 b9e9 9b40 59e3 2141 c366 0341
000000e0: 9a2f a3c0 c064 b13d 27d7 50bf 684a 0441
000000f0: c00b a5c0 8268 ebbe 5169 4640 2583 1b41
00000100: e526 9ec0 e557 fb40 d535 f640 5ae0 86c0
00000110: 7c15 27be c3ae 0441 1c76 df40 d659 e240
00000120: 2cf0 f940 e0ea a2c0 7702 f140 477e 84c0
00000130: 6fdd 5d40 9e34 953e a296 1c41 68e0 0f41
00000140: 8016 94bf 1117 eb40 16a5 f540 d568 3740
00000150: 4ee9 0741 c57b 1241 9cab 9dc0 20dd 613d
00000160: a14b 3f41 25bd 0141 a092 04be 47f8 d240
00000170: 456a a2c0 a7d0 0041 ca41 8f40 31cb 70bf
00000180: 4c77 48be 1748 efbf f0a8 eb3e b40f 3d41
00000190: 0417 ee40 4c1a 1fbe ed5a b9be 13ed e940
000001a0: 03c8 0241 ce15 37c0 ef9e 9dc0 be6f f340
000001b0: 8410 ebbd 8f3e 3fbf 85c8 dd40 4812 dd3e
000001c0: b086 9dc0 9975 1f41 e01a c6be ba65 ccbe
000001d0: 515a 2341 931a e140 4565 0041 69d5 30bf
000001e0: da56 98c0 7cf1 4941 4736 f940 86e0 0541
000001f0: daa0 3c41 d417 a7be 6801 f140 5a2b febe

fc2.weight f4 [128, 128]
2.3364847 1.3100033 1.4473914 0.5330891 0.073546186 2.5034442 0.46808568 3.38047
0.40861934 3.8776793 -0.04290801 2.0077798 0.25720352 1.5192456 0.1190296 0.101734094
0.29564753 0.1940081 0.07522526 -0.03618257 0.08666836 0.01915236 -0.46353444 1.5610882
0.97086257 4.590686 -0.055278968 1.1669501 0.14124618 0.28366312 -0.0722972 0.10712364
0.016181827 0.07932494 -0.004425893 0.5467441 0.035126954 0.33366138 1.3808037 2.4186141
3.548911 0.010161054 1.5776051 -0.029305961 0.38074324 1.2680418 -0.0774326 -0.0563375
0.022995178 1.0623239 0.35361347 0.42292467 1.9440455 0.6117726 4.7319818 3.8823342
-0.016712748 0.03386574 1.537223 0.32615912 0.012550998 -0.010273779 0.22289912 2.0373533
0.110632025 0.027230436 1.6928653 0.103407554 -0.068264335 2.2407603 3.3772118 0.16018848
0.006130983 -0.02753854 1.5447739 -3.0105982 0.27873018 -0.048422925 0.9428666 0.048414666
0.31603345 1.8017565 0.19722575 0.27967143 3.236399 1.7552747 -0.005165588 0.038221005
12.3295765 1.8754421 0.08423354 0.04848458 -0.043291703 1.9211802 0.507001 0.45067555
0.024524502 -4.4081993 0.16771367 4.9190545 1.4956615 0.02724093 0.15437649 1.3890787
3.3666532 0.22487524 0.011023992 0.24321772 0.38546982 0.16841792 1.4003861 0.28771082
-0.032812018 -0.15794194 0.026446525 -0.04023182 4.2288866 1.3527024 0.1452302 0.22658673
0.1550888 12.610274 1.4294986 3.1605928 10.299966 -0.086541995 1.4649498 -0.07429198
0.055060484 -0.08741305 -0.07742688 -0.045656916 0.081601344 0.081072584 -0.06767762 0.01374886
-0.09429796 0.053766087 -0.0088364445 0.065903425 0.06463158 0.019012898 -0.016649378 0.0018264883
0.010031621 -0.07973956 0.035004526 -0.09318371 -0.0074102483 0.027533341 0.037702464 -0.09065135
-0.070532374 -0.05323806 -0.027954286 0.03344502 -0.051253166 -0.041143406 -0.040299624 0.023948813
0.0634645 0.03604 -0.0597358 -0.07375868 -0.025352698 -0.0026178663 0.05452551 0.024017056
0.05640828 -0.0846116 -0.05367665 -0.07094799 -0.01279104 -0.07682761 0.02726745 0.073422745
0.039950956 0.006789761 -0.0356897 -0.05044355 0.005396274 -0.06025488 -0.088274755 0.03131435
0.0040286323 -0.0360131 -0.07868892 -0.08172655 -0.02218864 0.079428524 0.040308032 -0.0173732
-0.061410196 -0.044577535 0.011232715 -0.07307451 -0.038642675 0.025065774 -0.08531599 0.035112403
0.06357361 0.029543245 -0.03848813 0.0500332 0.005009969 -0.035599798 0.07325464 -0.03041027
-0.038149398 -0.100897595 0.0597258 0.07145668 -0.05887059 -0.025963774 -0.088678956 -0.0366594
-0.020491943 0.07109531 0.051924642 0.05698386 0.025874773 -0.08516177 -0.0002899327 -0.051034667
-0.083922066 -0.08211284 0.063496366 0.03783643 0.0296218 0.001227137 -0.0029647166 0.057693645
-0.07345423 0.0038679005 -0.05133796 -0.043262973 -0.061778527 -0.034729365 -0.062575035 0.081697665
-0.078630306 -0.0032575994 0.041638535 0.05762566 -0.100119494 0.0063625937 0.050352965 0.065803185
0.073215365 0.012687318 -0.04811502 -0.049601097 0.013514366 -0.028551739 0.020484421 -0.012367739
00000000: f788 1540 30ae a73f 1f44 b93f 8778 083f
00000010: 629f 963d 6e38 2040 eda8 ef3e 9f59 5840
00000020: 8e36 d13e e62b 7840 4fc0 2fbd 777f 0040
00000030: 2eb0 833e a476 c23f cac5 f33d f759 d03d
00000040: 1d5f 973e 0faa 463e b30f 9a3d 2d34 14bd
00000050: 2e7f b13d 69e5 9c3c 6354 edbe bdd1 c73f
00000060: 738a 783f e6e6 9240 336c 62bd 9f5e 953f
00000070: d7a2 103e 4b3c 913e 8e10 94bd a463 db3d
00000080: c08f 843c 1d75 a23d 1507 91bb 6cf7 0b3f
00000090: 48e1 0f3d aad5 aa3e 2dbe b03f 93ca 1a40
000000a0: 5c21 6340 8d7a 263c f7ee c93f 0e13 f0bc
000000b0: c7f0 c23e 324f a23f fc94 9ebd 27c2 66bd
000000c0: 6260 bc3c 3bfa 873f d30c b53e 9589 d83e
000000d0: 7cd6 f83f 219d 1c3f 656c 9740 2a78 7840
000000e0: 2ce9 88bc cdb6 0a3d b9c3 c43f 54fe a63e
000000f0: b3a2 4d3c 5a53 28bc ab3f 643e ff63 0240
00000100: 0b93 e23d 5d12 df3c cfaf d83f 57c7 d33d
00000110: 2cce 8bbd 9e68 0f40 3d24 5840 7308 243e
00000120: 6ae6 c83b 8198 e1bc 27bb c53f a4ad 40c0
00000130: b9b5 8e3e 1e57 46bd b55f 713f 754e 463d
00000140: 23cf a13e f59f e63f 8cf5 493e 1831 8f3e
00000150: 2921 4f40 d7ac e03f 1844 a9bb a18d 1c3d
00000160: f245 4541 7d0e f03f a282 ac3d c497 463d
00000170: a452 31bd 3ce9 f53f d1ca 013f f2be e63e
00000180: 9ce7 c83c f80f 8dc0 22bd 2b3e e568 9d40
00000190: d671 bf3f 5f28 df3c df14 1e3e 55cd b13f
000001a0: 3f77 5740 b245 663e f99d 343c 110e 793e
000001b0: 4d5c c53e bf75 2c3e da3f b33f d54e 933e
000001c0: e565 06bd 88bb 21be 62a6 d83c 1fca 24bd
000001d0: 0a53 8740 5a25 ad3f 3ab7 143e 5a06 683e
000001e0: 99cf 1e3e afc3 4941 cff9 b63f 2747 4a40
000001f0: a9cc 2441 ee3c b1bd 7a83 bb3f 6526 98bd
00000200: 1a87 613d 9d05 b3bd fc91 9ebd bf02 3bbd
00000210: 9b1e a73d 6209 a63d 909a 8abd e642 613c
00000220: 4a1f c1bd d439 5c3d bcc6 10bc 60f8 863d
00000230: 905d 843d f0c0 9b3c 4764 88bc c766 ef3a
00000240: ab5b 243c 7f4e a3bd e860 0f3d 1ad7 bebd
00000250: abd1 f2bb 9a8d e13c e66d 1a3d 6aa7 b9bd
00000260: 4773 90bd 2710 5abd 6300 e5bc a5fd 083d
00000270: d7ee 51bd fd85 28bd 3811 25bd 4d30 c43c
00000280: adf9 813d ae9e 133d 87ad 74bd ca0e 97bd
00000290: 76b0 cfbc 8290 2bbb 2456 5f3d 6bbf c43c
000002a0: 5e0c 673d d948 adbd 0cdc 5bbd 2e4d 91bd
000002b0: 8391 51bc cb57 9dbd fd5f df3c aa5e 963d
000002c0: 9da3 233d a57c de3b 5d2f 12bd e59d 4ebd
000002d0: 3ad3 b03b d2cd 76bd 65c9 b4bd 7a43 003d
000002e0: 9e02 843b 7982 13bd a827 a1bd 4060 a7bd
000002f0: f3c4 b5bc 6cab a23d 091a 253d 3e52 8ebc
00000300: 4289 7bbd ef96 36bd 6c09 383c 17a8 95bd
00000310: c847 1ebd bd56 cd3c 26ba aebd 06d2 0f3d
00000320: e132 823d ad04 f23c bba5 1dbd 9def 4c3d
00000330: ab2a a43b 18d1 11bd 8706 963d f51e f9bc
00000340: 8b42 1cbd 66a3 cebd 0aa3 743d e157 923d
00000350: 4a22 71bd fbb1 d4bc 509d b5bd 2b28 16bd
00000360: b8de a7bc 6b9a 913d efae 543d e867 693d
00000370: 55f7 d33c 4b69 aebd 1c02 98b9 ba09 51bd
00000380: 55df abbd c72a a8bd 620a 823d 5ffa 1a3d
00000390: 6ba9 f23c e3d7 a03a b14b 42bb 2c50 6c3d
000003a0: 2c6f 96bd 9a7c 7d3b c147 52bd 8434 31bd
000003b0: 7b0b 7dbd 6140 0ebd 5727 80bd 1b51 a73d
000003c0: ed08 a1bd 737d 55bb 2b8d 2a3d e208 6c3d
000003d0: 730b cdbd 4e7d d03b e93e 4e3d d2c3 863d
000003e0: f0f1 953d 78de 4f3c 4114 45bd 852a 4bbd
000003f0: 5c6b 5d3c 56e5 e9bc f2ce a73c 0fa2 4abc

fc2.bias f4 [128]
5.927557 0.015661158 5.81035 0.024226272 -0.023011586 7.66749 5.952527 5.5308137
-0.093896076 5.6695557 5.8211665 5.852952 -0.11455765 -0.03006544 -0.041927975 5.9697814
5.9612255 5.7991986 0.0512363 0.028313864 -0.058397148 -0.054655526 6.1963305 5.970286
0.0029708364 -0.11263021 0.0067634163 1.9512978 5.9284134 -0.0025405698 2.2442396 7.681006
0.06322317 -0.06031829 5.873192 0.022947848 6.767719 0.0483148 6.908107 -0.059702285
0.058769803 0.024070771 -0.01857443 -0.04146281 5.937412 -0.038070988 7.174582 0.6866605
7.032338 5.8036284 5.8242583 0.05471579 7.0284214 -0.029659282 -0.09354251 5.8013144
5.9851437 5.9270573 -0.13917932 5.945212 -0.04244928 6.07594 0.0075352597 5.767295
-0.089602195 5.8782625 1.4832995 5.941623 6.928094 6.1287403 6.8498034 5.715503
0.066209026 -0.028891513 0.038699523 5.9331517 6.91465 -0.14761117 6.198805 0.03139495
-3.2066867 5.8905153 6.9385624 5.892186 5.8377104 0.04577535 -0.101035774 -0.004376634
0.02727029 6.0254784 0.03102557 -0.078910366 0.0025340382 -0.09399699 0.030218985 7.3749113
-0.011574344 -0.03843475 -0.021202886 5.8780766 5.8681207 2.0354295 6.932604 -0.08699465
-0.08215305 0.035684228 5.6427627 6.1438804 -0.020473015 -0.06724626 6.8507996 0.034312524
5.8108945 0.015694844 5.8924766 0.045845103 3.869106 7.625558 0.024548773 5.596862
5.4625764 6.065368 7.7176337 -0.053522397 1.5241752 5.892751 5.7545905 0.050237156
00000000: 8cae bd40 d44b 803c 63ee b940 2d76 c63c
00000010: cb82 bcbc 145c f540 1a7b be40 6dfc b040
00000020: 964c c0bd 006d b540 ff46 ba40 624b bb40
00000030: 349d eabd cc4b f6bc abbc 2bbd 7308 bf40
00000040: 5cc2 be40 0993 b940 28dd 513d 7af2 e73c
00000050: d931 6fbd 79de 5fbd 5748 c640 950c bf40
00000060: 5db2 423b abaa e6bd a69f dd3b 20c4 f93f
00000070: 90b5 bd40 b07f 26bb 9fa1 0f40 cdca f540
00000080: 267b 813d 5010 77bd 30f1 bb40 20fd bb3c
00000090: 2791 d840 bde5 453d 360f dd40 628a 74bd
000000a0: 9bb8 703d 1130 c53c 6729 98bc e8d4 29bd
000000b0: 47ff bd40 53f0 1bbd 2d96 e540 fcc8 2f3f
000000c0: ea08 e140 53b7 b940 5360 ba40 aa1d 603d
000000d0: d4e8 e040 06f8 f2bc 3793 bfbd 5ea4 b940
000000e0: 4c86 bf40 74aa bd40 0685 0ebe 2d3f be40
000000f0: 4cdf 2dbd 1a6e c240 57ea f63b ae8d b840
00000100: 5b81 b7bd ba1a bc40 c2dc bd3f c721 be40
00000110: f2b2 dd40 a41e c440 9731 db40 67e5 b640
00000120: 9998 873d e5ad ecbc 6483 1e3d 61dc bd40
00000130: d044 dd40 6227 17be 9c5c c640 fe97 003d
00000140: 5b3a 4dc0 1a7f bc40 b408 de40 ca8c bc40
00000150: 86ce ba40 ef7e 3b3d d8eb cebd de69 8fbb
00000160: f165 df3c b8d0 c040 5629 fe3c c29b a1bd
00000170: 1b12 263b 7e81 c0bd ce8d f73c 46ff eb40
00000180: 51a2 3dbc c26d 1dbd adb1 adbc 3419 bc40
00000190: a5c7 bb40 7a44 0240 e4d7 dd40 402a b2bd
000001a0: dc3f a8bd a029 123d 8391 b440 ab9a c440
000001b0: 06b7 a7bc 68b8 89bd c039 db40 4a8b 0c3d
000001c0: d9f2 b940 7992 803c 2b8f bc40 13c8 3b3d
000001d0: 6f9f 7740 9204 f440 821a c93c 7e19 b340
000001e0: 6dcd ae40 7f17 c240 dbf6 f640 4d3a 5bbd
000001f0: 2c18 c33f 6b91 bc40 9b25 b840 7ac5 4d3d

fc3.weight f4 [2, 128]
-0.5512236 0.009223944 -0.7307843 -0.010822933 -0.02883621 -2.4226646 -0.8002579 -1.4139663
0.3756176 -0.4057194 -0.365822 -0.47749892 -0.005214812 0.00831667 0.044988785 -0.6217879
-0.76227134 -0.52484584 0.06009958 0.061069004 0.02138971 -0.083275154 -0.7836866 -0.47938424
0.056438264 0.046974704 0.058583926 -2.7331464 -0.5399914 -0.0011934934 -0.98830545 -2.4490788
0.06250794 0.06710315 -0.44602615 -0.08387792 -1.2562193 0.0344228 -1.5489807 0.04886881
0.047130037 0.018524561 0.050966788 0.031458918 -0.71651417 -0.005708505 -1.6412947 2.3972833
-3.01445 -0.5803879 -0.59647954 0.057781123 -1.8686713 -0.029984904 0.019356612 -0.6804667
-0.6063307 -0.6221253 0.03552921 -0.5572874 0.06714052 -1.3405222 -0.035779167 -0.58525157
0.06288764 -0.46147856 -2.7745364 -0.5845339 -1.4677209 -0.58255345 -1.6148407 -0.56311595
-0.0466072 0.023935907 0.07689189 -0.44841412 -1.333433 0.06545745 -0.5698834 0.06074922
-0.029682014 -0.423448 -2.8971348 -1.215813 -0.46305582 -0.053811356 0.06022952 -0.020246292
0.007566121 -0.5551325 0.062367048 0.07247878 0.06269849 0.0623076 0.041791882 -2.3288646
0.008431315 -0.025028206 0.068389915 -0.49820668 -0.62838763 -2.929809 -1.3089776 -0.014692807
-0.03210656 -0.02889156 -1.3509936 -0.5644293 0.040304516 0.0020495674 -2.7143023 0.019475058
-0.5927411 -0.061283536 -1.2127224 -0.002411279 0.29453468 -2.6485722 0.04687685 -1.3405778
-0.8589977 -0.52668273 -2.5177903 0.044665013 -2.2878418 -0.71355045 -0.7892405 0.055638444
-0.59440535 0.0036250916 -0.4645769 0.020307027 -0.052946698 -2.2768073 -0.5097587 -1.055863
-0.28466275 -0.56914616 -0.53479916 -0.47438723 0.046866506 -0.03489003 0.04721541 -0.5846917
-0.54844 -0.5105116 0.0031773795 0.024723854 0.0699349 -0.0146682095 -0.56526315 -0.563412
0.019656857 -0.0026768844 0.07444384 -1.3850663 -0.604469 0.049616743 0.37565717 -3.6630983
0.04233656 -0.06704414 -0.57642186 -0.010646081 -1.2053028 0.049755402 -1.8638595 -0.03962968
0.07197311 -0.01309825 0.010276084 -0.008606583 -0.5151301 0.0039915456 -2.464989 -1.9227685
-1.9920759 -0.5184525 -0.513111 0.0035667792 -1.630235 0.008490611 -0.08607777 -0.49182215
-0.522037 -0.48528954 0.05103257 -0.5155224 0.069536924 -1.257946 -0.021991298 -0.49345884
-0.061885677 -0.58831286 2.2768333 -0.52406794 -2.0421293 -0.5591529 -1.8295294 -0.5468178
0.046969682 -0.016998583 -0.05607879 -0.4726035 -2.0503063 -0.00848193 -0.7430335 0.054233983
0.5415151 -0.6032247 -2.2508507 -1.1676533 -0.56945795 -0.01757899 -0.04158906 0.07548445
0.08485839 -0.4764463 -0.0040868246 -0.054172404 -0.0388344 -0.022837233 0.0038171886 -2.6837983
-0.057169817 0.049737915 -0.03635646 -0.51134044 -0.516265 1.3104934 -1.1727291 0.03502458
-0.012204722 -0.07515388 -1.0503951 -0.6152357 0.013793305 -0.090994455 -2.0714767 0.04909595
-0.52116185 0.06701788 -1.2899013 0.0010586682 -0.9147895 -2.0918844 -0.009170562 -0.9957362
-0.35668412 -0.5655302 -2.2186964 -0.08813718 2.3121274 -0.46326557 -0.47330394 -0.0532583
00000000: fd1c 0dbf 0620 173c ae14 3bbf ac52 31bc
00000010: ea39 ecbc f00c 1bc0 b4dd 4cbf d9fc b4bf
00000020: f350 c03e 74ba cfbe 054d bbbe bd7a f4be
00000030: 03e1 aabb a442 083c 2946 383d 7e2d 1fbf
00000040: 3724 43bf 4c5c 06bf fa2a 763d 7e23 7a3d
00000050: 7939 af3c 2a8c aabd af9f 48bf da71 f5be
00000060: cf2b 673d 8c68 403d b3f5 6f3d dfeb 2ec0
00000070: e03c 0abf fe6e 9cba 9601 7dbf b5bd 1cc0
00000080: 2a04 803d 606d 893d 8a5d e4be 30c8 abbd
00000090: cbcb a0bf ecfe 0c3d 0045 c6bf a92a 483d
000000a0: 6d0b 413d d2c0 973c 8dc2 503d 11db 003d
000000b0: 796d 37bf 690e bbbb f215 d2bf 176d 1940
000000c0: c0ec 40c0 4d94 14bf e2b2 18bf e6ab 6c3d
000000d0: 9f30 efbf e7a2 f5bc c291 9e3c 1133 2ebf
000000e0: 7d38 1bbf 9b43 1fbf 1487 113d 63aa 0ebf
000000f0: f880 893d 3b96 abbf 2d8d 12bd 0cd3 15bf
00000100: 3ccb 803d eb46 ecbe 0192 31c0 03a4 15bf
00000110: 47de bbbf 3922 15bf 1ab3 cebf 5e28 10bf
00000120: 31e7 3ebd 3c15 c43c 7f79 9d3d 8996 e5be
00000130: efad aabf 8e0e 863d e1e3 11bf 2dd4 783d
00000140: b227 f3bc 2dce d8be a86a 39c0 c39f 9bbf
00000150: a715 edbe 4c69 5cbd 3bb3 763d 8ddb a5bc
00000160: 39ed f73b 2a1d 0ebf 9774 7f3d c16f 943d
00000170: 1168 803d 4136 7f3d f72d 2b3d 1e0c 15c0
00000180: 8023 0a3c f407 cdbc 0310 8c3d f214 ffbe
00000190: 03de 20bf fe81 3bc0 948c a7bf 19ba 70bc
000001a0: 2b82 03bd fead ecbc 5ced acbf 707e 10bf
000001b0: 5916 253d 0952 063b 21b7 2dc0 288a 9f3c
000001c0: e1bd 17bf 7204 7bbd 7d3a 9bbf 8c06 1ebb
000001d0: 40cd 963e 3582 29c0 f101 403d 0e98 abbf
000001e0: 46e7 5bbf aed4 06bf 7a23 21c0 a9f2 363d
000001f0: 006c 12c0 3eab 36bf aa0b 4abf 23e5 633d
00000200: f32a 18bf f292 6d3b 06dd edbe ec5a a63c
00000210: a3de 58bd 36b7 11c0 8c7f 02bf 8526 87bf
00000220: 51bf 91be 90b3 11bf 99e8 08bf e2e2 f2be
00000230: 18f7 3f3d d9e8 0ebd f264 413d 5bae 15bf
00000240: 9066 0cbf e3b0 02bf 953b 503b ae89 ca3c
00000250: 073a 8f3d ee52 70bc 16b5 10bf c53b 10bf
00000260: 6b07 a13c ab6e 2fbb 0376 983d da49 b1bf
00000270: 7bbe 1abf ed3a 4b3d 2356 c03e 3470 6ac0
00000280: 1a69 2d3d 704e 89bd 6290 13bf e66c 2ebc
00000290: 5d47 9abf 52cc 4b3d f392 eebf bb52 22bd
000002a0: a366 933d 0b9a 56bc 055d 283c a002 0dbc
000002b0: 91df 03bf 83cb 823b 61c2 1dc0 471d f6bf
000002c0: 58fc febf 4eb9 04bf 3e5b 03bf a0c0 693b
000002d0: 8aab d0bf 341c 0b3c 8b49 b0bd 1dd0 fbbe
000002e0: 38a4 05bf df77 f8be 8707 513d 47f9 03bf
000002f0: 6069 8e3d 6004 a1bf 1827 b4bc a3a6 fcbe
00000300: d67b 7dbd ac9b 16bf a3b7 1140 5129 06bf
00000310: 3fb2 02c0 a524 0fbf 052e eabf 40fc 0bbf
00000320: 4863 403d 9d40 8bbc e0b2 65bd 16f9 f1be
00000330: 3838 03c0 cbf7 0abc 7237 3ebf 7424 5e3d
00000340: bca0 0a3f ef6c 1abf f00d 10c0 aa75 95bf
00000350: ffc7 11bf d001 90bc 4a59 2abd 9797 9a3d
00000360: 3cca ad3d c5f0 f3be c5ea 85bb e2e3 5dbd
00000370: d210 1fbd 2615 bbbc cc29 7a3b 5ac3 2bc0
00000380: e62a 6abd fcb9 4b3d 83ea 14bd 35e7 02bf
00000390: f129 04bf 3fbe a73f fd1b 96bf ef75 0f3d
000003a0: 50f6 47bc 47ea 99bd 5973 86bf 1680 1dbf
000003b0: 50fd 613c 4d5b babd 1393 04c0 d618 493d
000003c0: dd6a 05bf ac40 893d 7c1b a5bf 03c3 8a3a
000003d0: a52f 6abf 6fe1 05c0 2040 16bc 91e8 7ebf
000003e0: 4d9f b6be 96c6 10bf 1fff 0dc0 4481 b4bd
000003f0: e5f9 1340 2531 edbe e554 f2be 6025 5abd

fc3.bias f4 [2]
-4.707405 -4.69641
00000000: 10a3 96c0 fe48 96c0

fc1.weight f4 [128, 4]
0.008409874 -0.004967118 1.3085914 0.3511785 -0.009824383 0.5639901 3.0382957 0.8461755
-0.08011059 0.15559319 1.8838525 0.65653354 0.47141066 -1.0624902 3.6150906 1.4098022
0.2626187 -0.6076664 1.4223896 2.9398413 -0.061215382 0.0262014 -0.621762 -2.2997642
-0.008531574 0.4345119 1.9810122 0.6809359 0.012717342 -0.008220207 3.2288198 1.8917835
0.21500705 -0.5568898 1.4265991 1.9231207 0.0029109712 -0.010717474 0.53835315 0.8912323
-0.43660778 -0.42706043 0.3079722 0.49595064 0.08071695 -12.529615 7.0512657 2.2696729
-0.15286334 0.31605363 1.8048521 -0.51887715 0.0023801131 0.0070003415 -0.26529923 -0.8614734
0.2546523 0.7350188 1.5446398 1.2825946 0.4655191 -0.0028351988 7.2351766 -0.7647541
-0.01347533 0.35612273 2.0800261 0.5936417 0.4754328 -0.9290587 4.0339704 5.8626766
-0.122502506 -0.14957815 0.28305417 0.0810079 0.28650007 1.7119105 0.41698804 1.3105615
-0.10844952 -0.27705276 -0.26511246 -0.43720043 0.31811935 1.8308635 0.24050686 1.2210242
-0.13092117 0.3321732 0.014633895 1.9451535 -0.010441565 0.70998704 2.736459 1.0227039
0.0018642956 0.008000066 2.3268318 1.4839914 0.0047382717 -0.004131995 -1.4721568 0.6446656
-0.2547257 -0.001290314 0.12660508 -0.08214239 -0.009712156 0.22803554 3.097554 0.4285708
-0.0027385377 0.029326428 1.9278349 0.5141203 0.42870772 -0.8305247 3.0506895 4.761854
-0.13973138 0.27138498 2.1974807 -0.028926656 0.31548685 0.012093954 6.044866 1.0325913
0.29535922 0.5713741 1.1644516 1.4322661 -0.024147093 -0.33855504 -0.2809502 0.39647686
-0.030865788 -0.24113792 -0.3508727 -0.062020004 -0.112721704 0.090661414 1.3042027 -0.86743736
-0.2630841 -0.10948312 -0.08675021 -0.358437 0.5044365 -0.9381378 6.2719507 1.7122688
-0.008590894 0.44883123 3.0399382 0.8839774 0.004334896 -0.008156034 1.6205362 0.4119789
0.00079252373 -0.007444947 1.9091603 1.1225644 -0.63133043 -0.00075746555 -0.4017601 -0.6025786
0.00043421058 0.33203018 2.878522 0.64638764 -0.7890043 -0.0004481796 -0.49795875 -0.03699242
0.63643223 -0.68661433 6.891041 5.4018865 -0.02882385 0.002974251 2.9900126 0.32074106
-0.26439232 -0.03644079 -0.32091576 -0.11886358 -0.09584367 -0.34752238 -0.42861676 0.104780614
0.33653277 1.4547966 0.3797006 1.3568621 -0.0079643475 0.26436645 2.6113217 0.7608614
0.7965456 -1.3408029 2.452774 -0.4355456 0.46323234 -2.158847 0.66507405 -3.4656549
-0.07691052 0.11889004 1.6312639 0.95014256 0.3619042 -0.8316773 3.4921496 1.817581
-0.028673803 -0.003924889 1.6092659 0.23187882 0.0012460388 -0.006746006 2.2472944 -0.03596448
0.45530862 1.176851 0.44593713 1.6376094 -0.47115618 -0.1449458 -0.21784973 0.22030663
-0.22535017 -10.290039 5.4554744 0.00537584 -0.16346104 0.26948005 1.1441854 -0.6271206
0.5212029 1.2584258 0.67160946 1.5698422 -0.32560772 -0.2305668 0.35456884 0.23201221
0.48050383 -0.6973156 6.218132 3.5749903 0.0009288651 -0.009520738 2.5321038 1.9449655
00000000: 91c9 093c 35c3 a2bb ec7f a73f abcd b33e
00000010: 73f6 20bc a861 103f 7073 4240 f59e 583f
00000020: 0511 a4bd d253 1f3e 1422 f13f 9512 283f
00000030: bd5c f13e aeff 87bf a55d 6740 6674 b43f
00000040: f575 863e 0690 1bbf dd10 b63f 5c26 3c40
00000050: fbbc 7abd 52a4 d63c cb2b 1fbf 562f 13c0
00000060: 04c8 0bbc 5878 de3e cf91 fd3f d151 2e3f
00000070: 665c 503c 0cae 06bc fca4 4e40 f625 f23f
00000080: cf2a 5c3e 5490 0ebf cd9a b63f d228 f63f
00000090: fec5 3e3b 5898 2fbc 83d1 093f cd27 643f
000000a0: 0e8b dfbe aaa7 dabe 88ae 9d3e 3eed fd3e
000000b0: ee4e a53d 4e79 48c1 f8a3 e140 5242 1140
000000c0: 3588 1cbe c8d1 a13e 6505 e73f 22d5 04bf
000000d0: acfb 1b3b 1f63 e53b 4dd5 87be 8589 5cbf
000000e0: c961 823e 312a 3c3f c2b6 c53f 0f2c a43f
000000f0: 8558 ee3e bece 39bb 9186 e740 edc6 43bf
00000100: a1c7 5cbc b855 b63e 261f 0540 e7f8 173f
00000110: ee6b f33e cad6 6dbf 4916 8140 0c9b bb40
00000120: 98e2 fabd 042b 19be 7aec 903e 78e7 a53d
00000130: 23b0 923e e21f db3f 757f d53e 7bc0 a73f
00000140: c81a debd dcd9 8dbe d2bc 87be bcd8 dfbe
00000150: 8ae0 a23e bc59 ea3f 6e47 763e 854a 9c3f
00000160: 3310 06be 9b12 aa3e 01c3 6f3c cafa f83f
00000170: 1913 2bbc b6c1 353f 2522 2f40 f6e7 823f
00000180: 615b f43a b512 033c d0ea 1440 6ef3 bd3f
00000190: 8143 9b3b b065 87bb a26f bcbf ce08 253f
000001a0: 686b 82be c11f a9ba c3a4 013e 453a a8bd
000001b0: bc1f 1fbc 2682 693e 533e 4640 a26d db3e
000001c0: 0a79 33bb fa3d f03c 4bc3 f63f 639d 033f
000001d0: 947f db3e 449d 54bf 7f3e 4340 1c61 9840
000001e0: be15 0fbe f9f2 8a3e 86a3 0c40 98f7 ecbc
000001f0: 7e87 a13e b825 463c 8b6f c140 f42b 843f
00000200: 5339 973e 9345 123f c00c 953f 7f54 b73f
00000210: 20d0 c5bc 1657 adbe b4d8 8fbe 04ff ca3e
00000220: 40da fcbc dcec 76be 96a5 b3be b008 7ebd
00000230: a3da e6bd b1ac b93d 1df0 a63f 6010 5ebf
00000240: f6b2 86be b038 e0bd 18aa b1bd 0e85 b7be
00000250: c022 013f cd29 70bf d2b3 c840 a02b db3f
00000260: d2c0 0cbc 35cd e53e 598e 4240 584c 623f
00000270: be0b 8e3b e3a0 05bc bb6d cf3f e6ee d23e
00000280: 5ec1 4f3a bef4 f3bb 5d5f f43f 31b0 8f3f
00000290: df9e 21bf a790 46ba 80b3 cdbe 9742 1abf
000002a0: c2a6 e339 dcff a93e b439 3840 a979 253f
000002b0: 30fc 49bf a6f9 eab9 73f4 febe 5d85 17bd
000002c0: 39ed 223f f5c5 2fbf 6883 dc40 41dc ac40
000002d0: ff1f ecbc a7eb 423b 5e5c 3f40 2c38 a43e
000002e0: 6e5e 87be f042 15bd 124f a4be c06e f3bd
000002f0: b049 c4bd 74ee b1be a873 dbbe 3897 d63d
00000300: 064e ac3e c636 ba3f 1e68 c23e a8ad ad3f
00000310: e57c 02bc 0a5b 873e e51f 2740 d0c7 423f
00000320: 6aea 4b3f 6e9f abbf 40fa 1c40 d5ff debe
00000330: ca2c ed3e 8d2a 0ac0 4b42 2a3f 4acd 5dc0
00000340: 4383 9dbd 9f7c f33d 41cd d03f 8b3c 733f
00000350: 824b b93e cee8 54bf 617f 5f40 7fa6 e83f
00000360: 53e5 eabc 5b9c 80bb 6dfc cd3f a471 6d3e
00000370: 2052 a33a 9a0d ddbb acd3 0f40 7e4f 13bd
00000380: 361e e93e 0ea3 963f df51 e43e 2f9d d13f
00000390: 623b f1be ac6c 14be 0014 5fbe 1098 613e
000003a0: 32c2 66be 00a4 24c1 3f93 ae40 d027 b03b
000003b0: 5562 27be 4af9 893e ab74 923f fa8a 20bf
000003c0: 8e6d 053f 1914 a13f 99ee 2b3f 97f0 c83f
000003d0: 0eb6 a6be b419 6cbe 0c8a b53e 9c94 6d3e
000003e0: 9904 f63e 4683 32bf f0fa c640 a4cc 6440
000003f0: 157f 733a dffc 1bbc fd0d 2240 a1f4 f83f

fc1.bias f4 [128]
8.968498 7.07232 8.52114 4.193994 7.513005 10.130926 7.922253 8.451589
5.5133405 10.777159 -0.49197274 0.71811706 7.6621966 10.888961 -4.77964 -2.8850296
8.057688 7.765553 -0.3271019 -4.9969115 -0.08965415 -5.0290513 -3.7147214 7.3614936
8.28159 10.912315 -0.43496034 6.9403415 7.514572 7.2673163 7.4216366 -2.0926275
-4.7335563 -0.4197334 -0.29580724 8.027803 0.08641577 1.7444199 7.791985 8.669163
9.082925 -0.41377506 7.870074 -0.40924704 3.4098299 8.014805 -0.49617517 -0.48558503
-4.9696236 7.3351626 -0.4374357 -0.18254033 8.38 4.886254 10.09966 8.197776
-5.081482 0.08661795 -0.8184104 8.250787 -5.1395392 -0.4597817 3.0735238 9.704843
-4.9235454 7.8382955 7.6791244 -4.1889663 -0.1631679 8.2777195 7.064546 7.109624
7.797821 -5.073559 7.517024 -4.120259 3.472134 0.29141706 9.767899 9.057369
-1.1681746 7.331523 7.65932 2.8801603 8.479385 9.140324 -4.908548 0.05514252
11.937693 8.091798 -0.12946558 6.623908 -5.0574737 8.035287 4.494596 -0.93563807
-0.19576758 -1.8504105 0.39292714 11.798304 7.425296 -0.15537375 -0.36383885 7.2951846
8.155446 -2.8408613 -4.9074616 7.5888805 -0.12921305 -0.7615667 6.91583 0.44055402
-4.905191 10.043536 -0.3869238 -0.3992136 10.191011 7.0194416 8.030676 -0.7023493
-4.7408214 12.60368 7.770334 8.352217 11.7872 -0.32635367 7.516619 -0.4964245
00000000: f87e 0f41 7250 e240 9756 0841 3335 8640
00000010: 896a f040 4618 2241 1983 fd40 b539 0741
00000020: 496d b040 3e6f 2c41 dae3 fbbe 85d6 373f
00000030: b730 f540 2f39 2e41 d0f2 98c0 53a4 38c0
00000040: 4aec 0041 697f f840 e679 a7be b3e6 9fc0
00000050: 989c b7bd fded a0c0 ffbd 6dc0 5b91 eb40
00000060: 6581 0441 d898 2e41 1fb3 debe 4717 de40
00000070: 6077 f040 db8d e840 0c7e ed40 9ced 05c0
00000080: 4b79 97c0 4ce7 d6be 0c74 97be e271 0041
00000090: c0fa b03d 2749 df3f f157 f940 e4b4 0a41
000000a0: a953 1141 53da d3be a5d7 fb40 d488 d1be
000000b0: a73a 5a40 a43c 0041 ac0a febe 9a9e f8be
000000c0: 2807 9fc0 a7b9 ea40 92f7 dfbe daeb 3abe
000000d0: 7b14 0641 315c 9c40 3598 2141 172a 0341
000000e0: 809b a2c0 c064 b13d 5883 51bf 3903 0441
000000f0: 1b77 a4c0 8268 ebbe 9db4 4440 0947 1b41
00000100: af8d 9dc0 51d3 fa40 63bb f540 030c 86c0
00000110: 7c15 27be 8a71 0441 c310 e240 0a82 e340
00000120: c087 f940 985a a2c0 768b f040 29d9 83c0
00000130: 7237 5e40 9e34 953e 5049 1c41 fcea 1041
00000140: bf86 95bf d69b ea40 2619 f540 8c54 3840
00000150: 90ab 0741 c43e 1241 d312 9dc0 20dd 613d
00000160: ca00 3f41 0178 0141 a092 04be 0ef7 d340
00000170: d3d6 a1c0 8990 0041 bbd3 8f40 fa85 6fbf
00000180: 4c77 48be 40da ecbf bf2d c93e dac5 3c41
00000190: 069c ed40 4c1a 1fbe 1649 babe 2772 e940
000001a0: b57c 0241 acd0 35c0 ed09 9dc0 1cd8 f240
000001b0: 6d50 04be 09f6 42bf 7b4e dd40 4c90 e13e
000001c0: 53f7 9cc0 53b2 2041 e01a c6be ba65 ccbe
000001d0: 620e 2341 449f e040 a67d 0041 2acd 33bf
000001e0: cfb4 97c0 aca8 4941 93a6 f840 aea2 0541
000001f0: 5f98 3c41 d417 a7be 2588 f040 5a2b febe

fc2.weight f4 [128, 128]
2.3354926 1.3088659 1.4470925 0.5338027 0.07435874 2.4971204 0.46698722 3.3766387
0.4133185 3.8758187 -0.04290801 2.0000324 0.25688806 1.5196353 0.11731994 0.100009084
0.29454675 0.19200858 0.07522526 -0.037626196 0.08666836 0.017710878 -0.46351466 1.55995
0.9687635 4.5917983 -0.055278968 1.1658437 0.14047417 0.28181547 -0.07286589 0.10521475
0.014370503 0.07932494 -0.004425893 0.5446352 0.035126954 0.3309144 1.3796253 2.417656
3.546368 0.010161054 1.5764016 -0.029305961 0.37849697 1.2602113 -0.0774326 -0.0563375
0.021481376 1.0612181 0.35003713 0.42201453 1.9428161 0.6130032 4.7187476 3.8816304
-0.01834202 0.03386574 1.5395831 0.32493243 0.01091446 -0.010273779 0.21996024 2.0321052
0.10874902 0.026336906 1.6911644 0.10208498 -0.068264335 2.235752 3.4621644 0.16433695
0.0046265484 -0.029023005 1.5436221 -3.0109556 0.2769645 -0.048422925 0.93814313 0.078259215
0.3155605 1.8006006 0.19698922 0.28270164 3.2342002 1.7549814 -0.006779566 0.038221005
12.312704 1.8751556 0.08423354 0.054011695 -0.044917043 1.9200727 0.50967336 0.44867584
0.024524502 -4.3618846 0.16468729 4.9025645 1.494406 0.02724093 0.15281844 1.3878726
3.3569014 0.22308235 0.009488572 0.24184912 0.3814621 0.16941433 1.3989571 0.28549546
-0.034207594 -0.10272512 0.026446525 -0.04023182 4.2203364 1.3515571 0.14404668 0.22000654
0.15318045 12.591232 1.4283165 3.1578279 10.311454 -0.086541995 1.4638039 -0.07429198
0.055060484 -0.08741305 -0.07742688 -0.045656916 0.081601344 0.081072584 -0.06767762 0.01374886
-0.09429796 0.053766087 -0.0088364445 0.065903425 0.06463158 0.019012898 -0.016649378 0.0018264883
0.010031621 -0.07973956 0.035004526 -0.09318371 -0.0074102483 0.027533341 0.037702464 -0.09065135
-0.070532374 -0.05323806 -0.027954286 0.03344502 -0.051253166 -0.041143406 -0.040299624 0.023948813
0.0634645 0.03604 -0.0597358 -0.07375868 -0.025352698 -0.0026178663 0.05452551 0.024017056
0.05640828 -0.0846116 -0.05367665 -0.07094799 -0.01279104 -0.07682761 0.02726745 0.073422745
0.039950956 0.006789761 -0.0356897 -0.05044355 0.005396274 -0.06025488 -0.088274755 0.03131435
0.0040286323 -0.0360131 -0.07868892 -0.08172655 -0.02218864 0.079428524 0.040308032 -0.0173732
-0.061410196 -0.044577535 0.011232715 -0.07307451 -0.038642675 0.025065774 -0.08531599 0.035112403
0.06357361 0.029543245 -0.03848813 0.0500332 0.005009969 -0.035599798 0.07325464 -0.03041027
-0.038149398 -0.100897595 0.0597258 0.07145668 -0.05887059 -0.025963774 -0.088678956 -0.0366594
-0.020491943 0.07109531 0.051924642 0.05698386 0.025874773 -0.08516177 -0.0002899327 -0.051034667
-0.083922066 -0.08211284 0.063496366 0.03783643 0.0296218 0.001227137 -0.0029647166 0.057693645
-0.07345423 0.0038679005 -0.05133796 -0.043262973 -0.061778527 -0.034729365 -0.062575035 0.081697665
-0.078630306 -0.0032575994 0.041638535 0.05762566 -0.100119494 0.0063625937 0.050352965 0.065803185
0.073215365 0.012687318 -0.04811502 -0.049601097 0.013514366 -0.028551739 0.020484421 -0.012367739
00000000: b678 1540 eb88 a73f 543a b93f 4ba7 083f
00000010: 6549 983d d2d0 1f40 f318 ef3e d91a 5840
00000020: 7c9e d33e 6a0d 7840 4fc0 2fbd 8800 0040
00000030: d586 833e 6983 c23f 7045 f03d 90d1 cc3d
00000040: d5ce 963e e69d 443e b30f 9a3d ed1d 1abd
00000050: 2e7f b13d 6716 913c cb51 edbe 71ac c73f
00000060: e200 783f 03f0 9240 336c 62bd 5e3a 953f
00000070: 76d8 0f3e 1e4a 903e b63a 95bd d57a d73d
00000080: 4272 6b3c 1d75 a23d 1507 91bb 366d 0b3f
00000090: 48e1 0f3d 9d6d a93e 9097 b03f e0ba 1a40
000000a0: b1f7 6240 8d7a 263c 87c7 c93f 0e13 f0bc
000000b0: 5bca c13e 9b4e a13f fc94 9ebd 27c2 66bd
000000c0: b6f9 af3c ffd5 873f 1138 b33e 4a12 d83e
000000d0: 33ae f83f c7ed 1c3f fbff 9640 a26c 7840
000000e0: 0142 96bc cdb6 0a3d 0f11 c53f 8b5d a63e
000000f0: 90d2 323c 5a53 28bc 423d 613e 030e 0240
00000100: ceb7 de3d 7fc0 d73c 1378 d83f ee11 d13d
00000110: 2cce 8bbd 9016 0f40 1a94 5d40 f247 283e
00000120: 4d9a 973b a7c1 edbc 6995 c53f 7fb3 40c0
00000130: 4ace 8d3e 1e57 46bd 262a 703f 5e46 a03d
00000140: 2591 a13e 157a e63f 8bb7 493e 45be 903e
00000150: 23fd 4e40 3ba3 e03f 1f27 debb a18d 1c3d
00000160: d600 4541 1905 f03f a282 ac3d 5e3b 5d3d
00000170: effa 37bd f1c4 f53f f479 023f d7b8 e53e
00000180: 9ce7 c83c 8f94 8bc0 c9a3 283e cfe1 9c40
00000190: b248 bf3f 5f28 df3c 707c 1c3e cfa5 b13f
000001a0: 79d7 5640 b36f 643e f575 1b3c 4ca7 773e
000001b0: 004f c33e f37a 2d3e 0711 b33f 762c 923e
000001c0: 431d 0cbd 8c61 d2bd 62a6 d83c 1fca 24bd
000001d0: ff0c 8740 d3ff ac3f f980 133e 6549 613e
000001e0: 56db 1c3e b075 4941 13d3 b63f da19 4a40
000001f0: b7fb 2441 ee3c b1bd ed5d bb3f 6526 98bd
00000200: 1a87 613d 9d05 b3bd fc91 9ebd bf02 3bbd
00000210: 9b1e a73d 6209 a63d 909a 8abd e642 613c
00000220: 4a1f c1bd d439 5c3d bcc6 10bc 60f8 863d
00000230: 905d 843d f0c0 9b3c 4764 88bc c766 ef3a
00000240: ab5b 243c 7f4e a3bd e860 0f3d 1ad7 bebd
00000250: abd1 f2bb 9a8d e13c e66d 1a3d 6aa7 b9bd
00000260: 4773 90bd 2710 5abd 6300 e5bc a5fd 083d
00000270: d7ee 51bd fd85 28bd 3811 25bd 4d30 c43c
00000280: adf9 813d ae9e 133d 87ad 74bd ca0e 97bd
00000290: 76b0 cfbc 8290 2bbb 2456 5f3d 6bbf c43c
000002a0: 5e0c 673d d948 adbd 0cdc 5bbd 2e4d 91bd
000002b0: 8391 51bc cb57 9dbd fd5f df3c aa5e 963d
000002c0: 9da3 233d a57c de3b 5d2f 12bd e59d 4ebd
000002d0: 3ad3 b03b d2cd 76bd 65c9 b4bd 7a43 003d
000002e0: 9e02 843b 7982 13bd a827 a1bd 4060 a7bd
000002f0: f3c4 b5bc 6cab a23d 091a 253d 3e52 8ebc
00000300: 4289 7bbd ef96 36bd 6c09 383c 17a8 95bd
00000310: c847 1ebd bd56 cd3c 26ba aebd 06d2 0f3d
00000320: e132 823d ad04 f23c bba5 1dbd 9def 4c3d
00000330: ab2a a43b 18d1 11bd 8706 963d f51e f9bc
00000340: 8b42 1cbd 66a3 cebd 0aa3 743d e157 923d
00000350: 4a22 71bd fbb1 d4bc 509d b5bd 2b28 16bd
00000360: b8de a7bc 6b9a 913d efae 543d e867 693d
00000370: 55f7 d33c 4b69 aebd 1c02 98b9 ba09 51bd
00000380: 55df abbd c72a a8bd 620a 823d 5ffa 1a3d
00000390: 6ba9 f23c e3d7 a03a b14b 42bb 2c50 6c3d
000003a0: 2c6f 96bd 9a7c 7d3b c147 52bd 8434 31bd
000003b0: 7b0b 7dbd 6140 0ebd 5727 80bd 1b51 a73d
000003c0: ed08 a1bd 737d 55bb 2b8d 2a3d e208 6c3d
000003d0: 730b cdbd 4e7d d03b e93e 4e3d d2c3 863d
000003e0: f0f1 953d 78de 4f3c 4114 45bd 852a 4bbd
000003f0: 5c6b 5d3c 56e5 e9bc f2ce a73c 0fa2 4abc

fc2.bias f4 [128]
5.916106 0.015661158 5.792681 0.024226272 -0.023011586 7.6492662 5.934799 5.5166936
-0.093896076 5.66119 5.813291 5.8407793 -0.11455765 -0.03006544 -0.041927975 5.956678
5.9448795 5.78689 0.0512363 0.028313864 -0.058397148 -0.054655526 6.1799464 5.9599133
0.0029708364 -0.11263021 0.0067634163 1.9763124 5.917423 -0.0025405698 2.2526827 7.670473
0.06322317 -0.06031829 5.863894 0.022947848 6.754671 0.0483148 6.8913417 -0.059702285
0.058769803 0.024070771 -0.01857443 -0.04146281 5.921126 -0.038070988 7.164132 0.6903852
7.0141983 5.7900176 5.8101816 0.05471579 7.0140824 -0.029659282 -0.09354251 5.78521
5.971052 5.911844 -0.13917932 5.9320407 -0.04244928 6.061293 0.0075352597 5.753067
-0.089602195 5.8687954 1.4832995 5.928063 6.9211984 6.115917 6.8430233 5.7031136
0.066209026 -0.028891513 0.038699523 5.921634 6.904513 -0.14761117 6.189439 0.03139495
-3.2185135 5.882288 6.9208255 5.8780766 5.82785 0.04577535 -0.101035774 -0.004376634
0.02727029 6.011472 0.03102557 -0.078910366 0.0025340382 -0.09399699 0.030218985 7.35934
-0.011574344 -0.03843475 -0.021202886 5.8661976 5.853473 2.0926154 6.91868 -0.08699465
-0.08215305 0.035684228 5.6214614 6.1325088 -0.020473015 -0.06724626 6.834781 0.034312524
5.797089 0.015694844 5.879959 0.045845103 3.8895328 7.603425 0.024548773 5.5828376
5.4401903 6.053894 7.6971097 -0.053522397 1.5107838 5.8753753 5.736333 0.050237156
00000000: be50 bd40 d44b 803c a55d b940 2d76 c63c
00000010: cb82 bcbc cac6 f440 e0e9 bd40 c188 b040
00000020: 964c c0bd 7828 b540 7b06 ba40 aae7 ba40
00000030: 349d eabd cc4b f6bc abbc 2bbd 1b9d be40
00000040: 743c be40 342e b940 28dd 513d 7af2 e73c
00000050: d931 6fbd 79de 5fbd 1fc2 c540 9cb7 be40
00000060: 5db2 423b abaa e6bd a69f dd3b cef7 fc3f
00000070: 875b bd40 b07f 26bb f42b 1040 8474 f540
00000080: 267b 813d 5010 77bd 05a5 bb40 20fd bb3c
00000090: 4426 d840 bde5 453d df85 dc40 628a 74bd
000000a0: 9bb8 703d 1130 c53c 6729 98bc e8d4 29bd
000000b0: dd79 bd40 53f0 1bbd 9240 e540 16bd 303f
000000c0: 5074 e040 d347 b940 02ed b940 aa1d 603d
000000d0: 5d73 e040 06f8 f2bc 3793 bfbd 7120 b940
000000e0: dc12 bf40 d32d bd40 0685 0ebe 47d3 bd40
000000f0: 4cdf 2dbd 1df6 c140 57ea f63b 2019 b840
00000100: 5b81 b7bd 2ccd bb40 c2dc bd3f b1b2 bd40
00000110: 757a dd40 98b5 c340 0cfa da40 e87f b640
00000120: 9998 873d e5ad ecbc 6483 1e3d 077e bd40
00000130: c5f1 dc40 6227 17be e20f c640 fe97 003d
00000140: 20fc 4dc0 b43b bc40 6777 dd40 3419 bc40
00000150: bf7d ba40 ef7e 3b3d d8eb cebd de69 8fbb
00000160: f165 df3c fb5d c040 5629 fe3c c29b a1bd
00000170: 1b12 263b 7e81 c0bd ce8d f73c b77f eb40
00000180: 51a2 3dbc c26d 1dbd adb1 adbc e4b7 bb40
00000190: a74f bb40 69ed 0540 d465 dd40 402a b2bd
000001a0: dc3f a8bd a029 123d 03e3 b340 833d c440
000001b0: 06b7 a7bc 68b8 89bd 87b6 da40 4a8b 0c3d
000001c0: c181 b940 7992 803c a028 bc40 13c8 3b3d
000001d0: 1bee 7840 424f f340 821a c93c 9ba6 b240
000001e0: 0a16 ae40 80b9 c140 b94e f640 4d3a 5bbd
000001f0: 5d61 c13f 1303 bc40 0a90 b740 7ac5 4d3d

fc3.weight f4 [2, 128]
-0.54551196 0.009223944 -0.7178851 -0.010822933 -0.02883621 -2.4039989 -0.7877113 -1.3457059
0.3756176 -0.4006964 -0.36108896 -0.4673178 -0.005214812 0.00831667 0.044988785 -0.6149517
-0.7526403 -0.5074982 0.06009958 0.061069004 0.02138971 -0.083275154 -0.77591074 -0.4734113
0.056438264 0.046974704 0.058583926 -2.7436538 -0.53390324 -0.0011934934 -0.98171544 -2.3664017
0.06250794 0.06710315 -0.44069204 -0.08387792 -1.2419914 0.0344228 -1.5238554 0.04886881
0.047130037 0.018524561 0.050966788 0.031458918 -0.70586765 -0.005708505 -1.5855159 2.3928123
-2.9729362 -0.5715233 -0.58764356 0.057781123 -1.8577974 -0.029984904 0.019356612 -0.6671047
-0.59785724 -0.61135733 0.03552921 -0.54832655 0.06714052 -1.2825661 -0.035779167 -0.5741983
0.06288764 -0.45621237 -2.7745364 -0.5751887 -1.4420078 -0.5758639 -1.5863107 -0.54571265
-0.0466072 0.023935907 0.07689189 -0.44048974 -1.2969978 0.06545745 -0.5663787 0.06074922
-0.0750893 -0.4186102 -2.8604248 -1.1579704 -0.45760623 -0.053811356 0.06022952 -0.020246292
0.007566121 -0.5447137 0.062367048 0.07247878 0.06269849 0.0623076 0.041791882 -2.2914228
0.008431315 -0.025028206 0.068389915 -0.48972115 -0.6192079 -2.9566982 -1.2974157 -0.014692807
-0.03210656 -0.02889156 -1.3028731 -0.5599004 0.040304516 0.0020495674 -2.7000766 0.019475058
-0.5838479 -0.061283536 -1.1502984 -0.002411279 0.2880118 -2.6286685 0.04687685 -1.2727808
-0.84751886 -0.5209823 -2.4961052 0.044665013 -2.1573331 -0.6997392 -0.7714033 0.055638444
-0.59395933 0.0036250916 -0.46913603 0.020307027 -0.052946698 -2.2824116 -0.51405376 -1.0927931
-0.28466275 -0.5681446 -0.5336025 -0.4763794 0.046866506 -0.03489003 0.04721541 -0.5849437
-0.5506994 -0.5166881 0.0031773795 0.024723854 0.0699349 -0.0146682095 -0.5663287 -0.5630043
0.019656857 -0.0026768844 0.07444384 -1.384685 -0.6041726 0.049616743 0.39815572 -3.7002628
0.04233656 -0.06704414 -0.57558846 -0.010646081 -1.2102038 0.049755402 -1.8737732 -0.03962968
0.07197311 -0.01309825 0.010276084 -0.008606583 -0.51798433 0.0039915456 -2.4881148 -1.905765
-2.0186832 -0.5199087 -0.5146197 0.0035667792 -1.6334304 0.008490611 -0.08607777 -0.4962953
-0.5233143 -0.4880719 0.05103257 -0.51699436 0.069536924 -1.2905079 -0.021991298 -0.49629733
-0.061885677 -0.58746564 2.2768333 -0.5257974 -2.0533326 -0.5593469 -1.8448514 -0.553043
0.046969682 -0.016998583 -0.05607879 -0.4733507 -2.0638897 -0.00848193 -0.74129146 0.054233983
0.563923 -0.6021154 -2.2708201 -1.2000571 -0.5687416 -0.01757899 -0.04158906 0.07548445
0.08485839 -0.47886 -0.0040868246 -0.054172404 -0.0388344 -0.022837233 0.0038171886 -2.6974664
-0.057169817 0.049737915 -0.03635646 -0.5124261 -0.51804686 1.3484449 -1.1762232 0.03502458
-0.012204722 -0.07515388 -1.0783317 -0.6141748 0.013793305 -0.090994455 -2.077215 0.04909595
-0.52269334 0.06701788 -1.3247417 0.0010586682 -0.9066316 -2.0981898 -0.009170562 -1.032266
-0.36143306 -0.5650713 -2.2249289 -0.08813718 2.1506503 -0.46836337 -0.48112267 -0.0532583
00000000: aca6 0bbf 0620 173c 51c7 37bf ac52 31bc
00000010: ea39 ecbc 1edb 19c0 73a7 49bf 1740 acbf
00000020: f350 c03e 1428 cdbe a7e0 b8be 4744 efbe
00000030: 03e1 aabb a442 083c 2946 383d 7a6d 1dbf
00000040: 09ad 40bf 67eb 01bf fa2a 763d 7e23 7a3d
00000050: 7939 af3c 2a8c aabd 16a2 46bf f762 f2be
00000060: cf2b 673d 8c68 403d b3f5 6f3d 0698 2fc0
00000070: e2ad 08bf fe6e 9cba b451 7bbf 2073 17c0
00000080: 2a04 803d 606d 893d 63a2 e1be 30c8 abbd
00000090: 93f9 9ebf ecfe 0c3d b20d c3bf a92a 483d
000000a0: 6d0b 413d d2c0 973c 8dc2 503d 11db 003d
000000b0: beb3 34bf 690e bbbb 2ff2 cabf d623 1940
000000c0: 9644 3ec0 5a4f 12bf cf6f 16bf e6ab 6c3d
000000d0: 4ecc edbf e7a2 f5bc c291 9e3c 60c7 2abf
000000e0: 2c0d 19bf ea81 1cbf 1487 113d 215f 0cbf
000000f0: f880 893d 202b a4bf 2d8d 12bd a9fe 12bf
00000100: 3ccb 803d ab94 e9be 0192 31c0 913f 13bf
00000110: b693 b8bf d16b 13bf 3b0c cbbf d3b3 0bbf
00000120: 31e7 3ebd 3c15 c43c 7f79 9d3d df87 e1be
00000130: 0604 a6bf 8e0e 863d 32fe 10bf 2dd4 783d
00000140: 6bc8 99bd 1354 d6be 3311 37c0 6038 94bf
00000150: 5d4b eabe 4c69 5cbd 3bb3 763d 8ddb a5bc
00000160: 39ed f73b 5b72 0bbf 9774 7f3d c16f 943d
00000170: 1168 803d 4136 7f3d f72d 2b3d aca6 12c0
00000180: 8023 0a3c f407 cdbc 0310 8c3d bbbc fabe
00000190: 6984 1ebf 8b3a 3dc0 b811 a6bf 19ba 70bc
000001a0: 2b82 03bd fead ecbc 8cc4 a6bf a255 0fbf
000001b0: 5916 253d 0952 063b 0ece 2cc0 288a 9f3c
000001c0: 0e77 15bf 7204 7bbd fa3c 93bf 8c06 1ebb
000001d0: 4876 933e 1b3c 28c0 f101 403d 7bea a2bf
000001e0: fff6 58bf 195f 05bf 30c0 1fc0 a9f2 363d
000001f0: bf11 0ac0 1c22 33bf b07a 45bf 23e5 633d
00000200: b80d 18bf f292 6d3b 9932 f0be ec5a a63c
00000210: a3de 58bd 0813 12c0 0799 03bf a5e0 8bbf
00000220: 51bf 91be ed71 11bf 2c9a 08bf 00e8 f3be
00000230: 18f7 3f3d d9e8 0ebd f264 413d dfbe 15bf
00000240: a3fa 0cbf ac45 04bf 953b 503b ae89 ca3c
00000250: 073a 8f3d ee52 70bc ebfa 10bf 0d21 10bf
00000260: 6b07 a13c ab6e 2fbb 0376 983d 5c3d b1bf
00000270: 0eab 1abf ed3a 4b3d 11db cb3e 1bd1 6cc0
00000280: 1a69 2d3d 704e 89bd c459 13bf e66c 2ebc
00000290: f5e7 9abf 52cc 4b3d cdd7 efbf bb52 22bd
000002a0: a366 933d 0b9a 56bc 055d 283c a002 0dbc
000002b0: 9f9a 04bf 83cb 823b 463d 1fc0 1cf0 f3bf
000002c0: 1b32 01c0 bd18 05bf 1ebe 03bf a0c0 693b
000002d0: 3f14 d1bf 341c 0b3c 8b49 b0bd 6b1a febe
000002e0: edf7 05bf 8fe4 f9be 8707 513d be59 04bf
000002f0: 6069 8e3d 5d2f a5bf 1827 b4bc af1a febe
00000300: d67b 7dbd 2664 16bf a3b7 1140 a99a 06bf
00000310: cd69 03c0 5c31 0fbf 1724 ecbf 3a94 0dbf
00000320: 4863 403d 9d40 8bbc e0b2 65bd 065b f2be
00000330: c516 04c0 cbf7 0abc 47c5 3dbf 7424 5e3d
00000340: 425d 103f 3c24 1abf 1e55 11c0 799b 99bf
00000350: 0d99 11bf d001 90bc 4a59 2abd 9797 9a3d
00000360: 3cca ad3d 232d f5be c5ea 85bb e2e3 5dbd
00000370: d210 1fbd 2615 bbbc cc29 7a3b 4aa3 2cc0
00000380: e62a 6abd fcb9 4b3d 83ea 14bd 5b2e 03bf
00000390: b89e 04bf d899 ac3f 7b8e 96bf ef75 0f3d
000003a0: 50f6 47bc 47ea 99bd c606 8abf 8f3a 1dbf
000003b0: 50fd 613c 4d5b babd 17f1 04c0 d618 493d
000003c0: 3bcf 05bf ac40 893d 2391 a9bf 03c3 8a3a
000003d0: 0219 68bf be48 06c0 2040 16bc 4b21 84bf
000003e0: c10d b9be 83a8 10bf 3c65 0ec0 4481 b4bd
000003f0: 41a4 0940 53cd efbe b655 f6be 6025 5abd

fc3.bias f4 [2]
-4.6734447 -4.7020397
00000000: dc8c 95c0 1c77 96c0
